02_linear/models/net-30.pth (torch, 1823 bytes, 4 tensors)

fc1.weight f4 [10, 4]
0	0xbf1ddb88	-0.61663103
1	0xbf33bb23	-0.7020742
2	0xbebd2927	-0.3694546
3	0xbf100848	-0.56262636
4	0xbf0ec062	-0.557623
5	0xbf7b7e85	-0.9823993
6	0x3fc60ff7	1.5473622
7	0x403c02dd	2.9376748
8	0x3ea9e58a	0.33182937
9	0x3f270214	0.65237546
10	0xbf7b5a03	-0.9818422
11	0xbf68327b	-0.9070203
12	0xbbd385e3	-0.0064551695
13	0xbf0ffa14	-0.56240964
14	0x3e1c36a0	0.15255213
15	0xbe3e5c81	-0.18589975
16	0x3f8a4798	1.0803099
17	0x3fbc8351	1.4727575
18	0xbfc19632	-1.5123961
19	0xc020eb33	-2.5143554
20	0x3e004f86	0.12530336
21	0x3e9bab03	0.3040391
22	0xbe51b684	-0.2047978
23	0xbf0cf650	-0.55063343
24	0x3e3d2170	0.18469787
25	0x3f3e348b	0.74298924
26	0xbf3bdb42	-0.73381436
27	0xbf503fd3	-0.8134739
28	0xbebf6178	-0.3737905
29	0x3d24f6f0	0.04027456
30	0xbdda49e0	-0.10658622
31	0xbec6a532	-0.3879791
32	0xbee6c452	-0.45071656
33	0x3eb46cc2	0.35239226
34	0x3ce09220	0.027413428
35	0xbdfd8798	-0.12379378
36	0xbecbc9b6	-0.3980233
37	0xbe34d6b6	-0.1766003
38	0x3e898d6d	0.26865712
39	0x3da7a35c	0.08185455

fc1.bias f4 [10]
0	0xbe818e3c	-0.2530383
1	0xc001a783	-2.025849
2	0x3f1391b7	0.5764422
3	0xbeede560	-0.46464062
4	0x3fffa9a5	1.9973646
5	0xbe4acb1b	-0.19804041
6	0x3e8e4a1f	0.27790925
7	0x3e899dfc	0.26878345
8	0x3cf045e0	0.029330194
9	0xbf5831dd	-0.84451085

fc2.weight f4 [3, 10]
0	0xbf3904f2	-0.7227317
1	0xc02edee2	-2.7323537
2	0x400ae31d	2.170112
3	0xbe2cf2d0	-0.168895
4	0x3f018d7d	0.5060652
5	0x3e9b2023	0.30297956
6	0x3f3a7aaa	0.7284342
7	0xbd878ab4	-0.066182524
8	0xbe04a53d	-0.12953658
9	0xbd7a4113	-0.061097216
10	0x3ea11356	0.31460065
11	0xbd357633	-0.044302177
12	0xbf0c226a	-0.5474001
13	0x3ed9a805	0.42511
14	0x3eaa17d1	0.33221295
15	0xbc8c5f6f	-0.01713535
16	0xbe873223	-0.2640544
17	0xbe57e23a	-0.21082392
18	0x3e16bd83	0.1472073
19	0xbbffcea5	-0.0078066164
20	0x3f0c1dde	0.54733074
21	0x3faa9b3a	1.3328621
22	0xbedc3e6d	-0.43016377
23	0x3eef7c17	0.4677436
24	0xbfe603db	-1.7969927
25	0x3d039f57	0.03213438
26	0xbf64f8e6	-0.8944229
27	0x3e1d3054	0.15350467
28	0xbe7e83f4	-0.24855024
29	0x3e04487c	0.12918276

fc2.bias f4 [3]
0	0xbf1c1a16	-0.60977304
1	0x3fdc19ea	1.7195408
2	0xc025b9f8	-2.5894756
