02_linear/models/net-30.ckpt (torch, 1823 bytes, 4 tensors)

fc1.weight f4 [10, 4]
000000 eb 8e 51 bf 37 ba e3 bd e8 03 67 bf b9 8c 10 bf
       -0.818587 -0.11119502 -0.90240335 -0.56464726
000010 3c e0 c9 be bc 8c 23 bf 54 b3 d1 3f 7f be 34 40
       -0.3942889 -0.6388662 1.6382852 2.824127
000020 c2 40 a5 be c0 3b 5f bc 40 4b c2 3c 40 91 8f 3d
       -0.3227597 -0.013625085 0.023717523 0.07010126
000030 80 bc 17 3e 10 e5 fe be 54 a3 be be 80 3e 6c 3c
       0.14818001 -0.49784136 -0.37233984 0.014419198
000040 65 7a 4b bf 5b 21 e4 be 2d 94 5a bf 91 77 4a bf
       -0.79483634 -0.44556698 -0.8538235 -0.79088694
000050 20 60 3f bd 94 08 4e 3e 78 0b fb be bc 43 64 3e
       -0.04672253 0.2012046 -0.49032187 0.22291464
000060 ca f2 c8 be 23 cc ef be 28 2d cd 3d 67 19 7c 3e
       -0.39247733 -0.4683543 0.100183785 0.24619065
000070 67 18 7e 3f 0c cc e3 3f ea ee ce bf d7 95 3a c0
       0.99255985 1.7796645 -1.6166661 -2.9153955
000080 40 eb 68 3d 5c 55 62 be ac ca dd be fe 99 aa 3e
       0.056864977 -0.22102875 -0.4331869 0.33320612
000090 fa a2 9e be 5e 5f 91 be e4 86 c2 3e 70 ae 6c bd
       -0.30983716 -0.28393072 0.37993538 -0.057783544

fc1.bias f4 [10]
000000 7c a0 34 be f4 b8 f5 bf f4 66 4e 3e 80 34 99 3c
       -0.17639345 -1.9197068 0.20156461 0.018701792
000010 57 0f ec be 6e 8d ea be 3d 41 61 be e0 f1 1a 40
       -0.46105453 -0.45811027 -0.21997543 2.4210129
000020 3e 4c a5 be a0 72 16 3e
       -0.3228473 0.14692163

fc2.weight f4 [3, 10]
000000 c2 1b 9d 3e f2 be 1d c0 5f 07 44 be e9 e9 4e 3e
       0.3068524 -2.4647794 -0.19143437 0.20206417
000010 cd e4 cd 3e 40 81 0e be 8c 2f 92 3e 3a 53 aa 3f
       0.40213624 -0.13916492 0.285519 1.3306649
000020 d7 1c 8e be b9 1b ea bd cd f0 32 bf 7c 9d 26 3e
       -0.27756378 -0.11431069 -0.6989868 0.16271013
000030 27 a6 8d 3b 7c af c7 3b 4e 29 f9 be 23 96 bf 3c
       0.0043227854 0.0060939174 -0.48664325 0.02338702
000040 13 de 10 be ff 74 bd 3e 78 aa d5 3c 15 f9 13 3d
       -0.14147215 0.37003323 0.026082262 0.036126215
000050 e3 bf 0c bf 59 09 a7 3f ce 68 da bd db d3 58 3d
       -0.54980296 1.3049728 -0.10664521 0.052936416
000060 c5 74 b4 3e 09 d6 9c 3e 05 b7 62 3f 09 23 14 c0
       0.35245338 0.30632046 0.88560516 -2.3146384
000070 d5 e4 92 3e 2b 50 6c 3e
       0.2869021 0.23077457

fc2.bias f4 [3]
000000 32 b7 a8 be 9a 5e ca 3f ea 43 0a c0
       -0.32952267 1.581012 -2.1603951
