02_linear/models/net-30.pth (torch, 1823 bytes, 4 tensors)

fc1.weight f4 [10, 4]
00000000: 1a9c e7be 88b1 843e 9e04 f4be a0ea 90bd
00000010: 203d 06be 502c 81bd 20a8 cebd 8017 433e
00000020: e440 3e3e 962d 9ebe 4286 b9be 12e2 f3be
00000030: d055 6a3e 5d85 4cbe 2176 5dbf 246c 9fbe
00000040: d83b 4cbe 7eed fbbe 3013 283e c480 4cbe
00000050: 582c 893d 28ee 9abe 28a0 adbe d4d8 d0be
00000060: a58a 07bf a55b 53bf 2cb6 a83f 6f1e d33f
00000070: ac9b 723e aa05 5b3f 1e81 39bf c978 c9bf
00000080: 8539 29be 316d 7d3f 6cbb f5be df92 b5bf
00000090: 28ab e7bd b066 61be da69 97be 3401 a53e
-0.45236284 0.25916696 -0.47659773 -0.07076001 -0.13109255 -0.0630728 -0.10090661 0.19051933
0.18579441 -0.30894154 -0.36235243 -0.47633415 0.22884297 -0.19972749 -0.86508375 -0.31137192
-0.19944704 -0.4920463 0.1641357 -0.19970995 0.06697911 -0.30259824 -0.33911252 -0.40790427
-0.5294593 -0.82561713 1.3180594 1.6493663 0.23692197 0.8555552 -0.7246264 -1.5739986
-0.16525848 0.9899474 -0.47994554 -1.4185447 -0.11311942 -0.22011828 -0.29572946 0.3222748

fc1.bias f4 [10]
00000000: 62fe e13e d443 4f3e 140a 1f3e 934f 4cbe
00000010: 2472 ec3e 5e7d cc3e 9be7 a2bf 1d59 0d3f
00000020: 8448 fb3e e833 283e
0.4413939 0.20240718 0.15531188 -0.1995223 0.46180832 0.39939398 -1.272693 0.552141
0.49078763 0.1642605

fc2.weight f4 [3, 10]
00000000: 4e5d 2abe 6d10 1bbd 7080 4e3e ae3c e93d
00000010: 69f0 37be 9a0b d1bd 50b3 d1bf 360d e63f
00000020: c371 a13f 52a2 153e ab30 903e f238 95bd
00000030: b0b7 8abe 6a5a 9e3e 733d 583d 8eef 62be
00000040: 5399 ccbe e7f4 0abf d5e2 6bbf 45bc 08be
00000050: 0d75 8f3d fad4 54be 1220 40be 6b1e cbbd
00000060: 0dea 0bbd 526a 663d 9e26 943f d6ba abbf
00000070: a221 a0be 0fc8 423e
-0.16637155 -0.03785746 0.20166183 0.11388527 -0.17962803 -0.10207291 -1.6382847 1.7972782
1.2612842 0.14612702 0.2816213 -0.07286252 -0.27093267 0.30928355 0.052792978 -0.22161695
-0.39960727 -0.5427994 -0.92142993 -0.13353069 0.070047475 -0.20784369 -0.18762234 -0.09917911
-0.034158755 0.05625374 1.1574285 -1.3416393 -0.3127566 0.19021629

fc2.bias f4 [3]
00000000: c4c1 8ebf c9f2 d53f 20c2 b0bf
-1.1152883 1.6714717 -1.3809242
