02_linear/models/net-10.pth (torch, 1823 bytes, 4 tensors)

fc1.weight f4 [10, 4]
-0.45236284 0.25916696 -0.47659773 -0.07076001 -0.13109255 -0.0630728 -0.10090661 0.19051933
0.18579441 -0.30894154 -0.36235243 -0.47633415 0.2484024 -0.20556164 -0.8186788 -0.25938988
-0.19944704 -0.4920463 0.1641357 -0.19970995 0.06697911 -0.30259824 -0.33911252 -0.40790427
-0.12100249 -0.28327477 0.87863696 0.41865197 0.20270501 0.7715181 -0.67074686 -1.4894986
-0.15161808 0.95720387 -0.390287 -1.305875 -0.11311942 -0.22011828 -0.29572946 0.3222748
00000000: 1a9c e7be 88b1 843e 9e04 f4be a0ea 90bd
00000010: 203d 06be 502c 81bd 20a8 cebd 8017 433e
00000020: e440 3e3e 962d 9ebe 4286 b9be 12e2 f3be
00000030: 335d 7e3e c07e 52be ef94 51bf c0ce 84be
00000040: d83b 4cbe 7eed fbbe 3013 283e c480 4cbe
00000050: 582c 893d 28ee 9abe 28a0 adbe d4d8 d0be
00000060: 27d0 f7bd 6409 91be 5aee 603f 8d59 d63e
00000070: e791 4f3e 3682 453f 11b6 2bbf e4a7 bebf
00000080: c541 1bbe 500b 753f b3d3 c7be e926 a7bf
00000090: 28ab e7bd b066 61be da69 97be 3401 a53e

fc1.bias f4 [10]
0.4413939 0.20240718 0.15531188 -0.19033974 0.46180832 0.39939398 -0.2741365 0.48790818
0.4788235 0.1642605
00000000: 62fe e13e d443 4f3e 140a 1f3e 6ce8 42be
00000010: 2472 ec3e 5e7d cc3e 9f5b 8cbe 1acf f93e
00000020: 5b28 f53e e833 283e

fc2.weight f4 [3, 10]
-0.16637155 -0.03785746 0.20166183 0.13211797 -0.17962803 -0.10207291 -1.1004167 1.6402036
1.1277121 0.14612702 0.2816213 -0.07286252 -0.27093267 0.28426284 0.052792978 -0.22161695
0.20078556 -0.5191337 -0.866899 -0.13353069 0.070047475 -0.20784369 -0.18762234 -0.072809584
-0.034158755 0.05625374 0.44987875 -1.1985649 -0.247992 0.19021629
00000000: 4e5d 2abe 6d10 1bbd 7080 4e3e ef49 073e
00000010: 69f0 37be 9a0b d1bd 74da 8cbf 31f2 d13f
00000020: df58 903f 52a2 153e ab30 903e f238 95bd
00000030: b0b7 8abe e68a 913e 733d 583d 8eef 62be
00000040: bb9a 4d3e f2e5 04bf 18ed 5dbf 45bc 08be
00000050: 0d75 8f3d fad4 54be 1220 40be 311d 95bd
00000060: 0dea 0bbd 526a 663d 8256 e63e 936a 99bf
00000070: 9df1 7dbe 0fc8 423e

fc2.bias f4 [3]
-0.52020067 0.46493137 -0.30535272
00000000: df2b 05bf 7c0b ee3e 3157 9cbe
