02_linear/models/net-19.ckpt (torch, 1823 bytes, 4 tensors)

fc1.weight f4 [10, 4]
0	0xbe97690e	-0.29572338
1	0xbe81b40c	-0.25332677
2	0xbef4a510	-0.47782183
3	0xbf466f3b	-0.77513474
4	0x3f4753db	0.7786233
5	0x3fdd6c98	1.7298765
6	0xbfadd9f4	-1.3582139
7	0xc01a86bb	-2.4144733
8	0xbab7a22d	-0.0014010124
9	0xbe5911d4	-0.21198207
10	0xbf18461a	-0.59481966
11	0xbec362ab	-0.38161215
12	0xbf02e7de	-0.5113505
13	0xbf100782	-0.56261456
14	0xbf38515b	-0.7199914
15	0xbf33a90c	-0.7017982
16	0xbf932977	-1.1497029
17	0xbf40ba2c	-0.75284076
18	0x3fe67837	1.8005437
19	0x404d48d7	3.2075708
20	0xbe6f8a4a	-0.23392597
21	0x3bdbeb88	0.006711427
22	0xbf02d322	-0.51103413
23	0xbe97737b	-0.29580292
24	0x3d922ba0	0.07137227
25	0xbefe1a70	-0.49629545
26	0x3e36222c	0.17786473
27	0xbef89490	-0.48550844
28	0xbf012667	-0.5044922
29	0xbfa63eab	-1.2987875
30	0x3ebf33d6	0.37344235
31	0x3fec9bf8	1.8485098
32	0xbed78a28	-0.42097592
33	0x3e2a4e90	0.16631532
34	0x3e8f0b5c	0.27938354
35	0x3ea03d42	0.31296736
36	0xbf32df57	-0.6987204
37	0xbf03190d	-0.512101
38	0xbe96c872	-0.29449803
39	0xbe7a21d9	-0.24426974

fc1.bias f4 [10]
0	0x3dc0debe	0.09417485
1	0x4002ac02	2.0417485
2	0xbd47c74a	-0.04877404
3	0xbdf2b400	-0.118507385
4	0xbfb903a1	-1.4454232
5	0xbe889a3c	-0.2668017
6	0xbedace28	-0.4273541
7	0xbfa05c7f	-1.2528228
8	0xbeec5232	-0.4615646
9	0xbec06aed	-0.37581578

fc2.weight f4 [3, 10]
0	0xbe4173c9	-0.18891825
1	0x3fa9f581	1.3278047
2	0x3f277225	0.65408546
3	0x3f154bdb	0.5831887
4	0xc058ba5c	-3.3863745
5	0x3ec2c495	0.38040605
6	0xbdf073fd	-0.11740873
7	0xbedcf3d6	-0.43154782
8	0xbe3016cd	-0.17196198
9	0xbe80367c	-0.25041568
10	0x3d92fbf0	0.071769595
11	0x3e69df77	0.22839151
12	0xbec3903b	-0.38195977
13	0xbeaa4eba	-0.3326319
14	0xbcbd0307	-0.023072733
15	0xbe307970	-0.17233825
16	0x3e15ab18	0.14616048
17	0xbde72fc7	-0.1128841
18	0x3e11c243	0.14234261
19	0xbea66f67	-0.32506868
20	0x3dc2ec93	0.09517779
21	0xbfdf0c72	-1.7425673
22	0xbf525925	-0.82167274
23	0xbe95e8f1	-0.29279283
24	0x3f80124e	1.0005586
25	0x3cfda924	0.030964442
26	0xbe7c894c	-0.2466175
27	0x3ee5ecab	0.44907126
28	0xbd81a6e4	-0.0633066
29	0xbbc57f79	-0.006027159

fc2.bias f4 [3]
0	0xbee9abf8	-0.45639014
1	0x3febd3b3	1.842398
2	0xc01a94b1	-2.4153254
