02_linear/models/net-10.ckpt (torch, 1823 bytes, 4 tensors)

fc1.weight f4 [10, 4]
00000000: eb8e 51bf 22ba e3bd e803 67bf b98c 10bf
00000010: 321a 39be c32a f0be 0737 bd3f 08a5 0a40
00000020: c240 a5be c03b 5fbc 404b c23c 4091 8f3d
00000030: 80bc 173e 10e5 febe 54a3 bebe 803e 6c3c
00000040: 627a 4bbf 5221 e4be 2894 5abf 8c77 4abf
00000050: 2060 3fbd 9408 4e3e 780b fbbe bc43 643e
00000060: c8f2 c8be 1fcc efbe 292d cd3d 6719 7c3e
00000070: a01f 523f 7575 d13f 0414 a1bf 11d9 04c0
00000080: 40eb 683d 5c55 62be acca ddbe fe99 aa3e
00000090: faa2 9ebe 5e5f 91be e486 c23e 70ae 6cbd
-0.818587 -0.111194864 -0.90240335 -0.56464726 -0.18076399 -0.46907625 1.4782418 2.1663227
-0.3227597 -0.013625085 0.023717523 0.07010126 0.14818001 -0.49784136 -0.37233984 0.014419198
-0.79483616 -0.4455667 -0.8538232 -0.79088664 -0.04672253 0.2012046 -0.49032187 0.22291464
-0.39247727 -0.4683542 0.10018379 0.24619065 0.82079506 1.636397 -1.2584233 -2.0757487
0.056864977 -0.22102875 -0.4331869 0.33320612 -0.30983716 -0.28393072 0.37993538 -0.057783544

fc1.bias f4 [10]
00000000: 73a0 34be 2ea4 90bf f466 4e3e 8034 993c
00000010: 4e0f ecbe 6e8d eabe 3341 61be b15a b93f
00000020: 3e4c a5be a072 163e
-0.17639332 -1.1300104 0.20156461 0.018701792 -0.46105427 -0.45811027 -0.21997528 1.4480802
-0.3228473 0.14692163

fc2.weight f4 [3, 10]
00000000: c01b 9d3e 8c8d dcbf 5f07 44be e9e9 4e3e
00000010: cce4 cd3e 4081 0ebe 8c2f 923e 50c3 953f
00000020: d71c 8ebe b91b eabd cdf0 32bf 503f c23d
00000030: 27a6 8d3b 7caf c73b 4a29 f9be 2396 bf3c
00000040: 09de 10be cf1c 983e 78aa d53c 15f9 133d
00000050: e3bf 0cbf 8f88 a03f ce68 dabd dbd3 583d
00000060: c074 b43e 09d6 9c3e 02b7 623f bf44 09c0
00000070: d5e4 923e 2b50 6c3e
0.30685234 -1.7230697 -0.19143437 0.20206417 0.4021362 -0.13916492 0.285519 1.170023
-0.27756378 -0.11431069 -0.6989868 0.09484732 0.0043227854 0.0060939174 -0.48664314 0.02338702
-0.141472 0.2970948 0.026082262 0.036126215 -0.54980296 1.2541674 -0.10664521 0.052936416
0.35245323 0.30632046 0.885605 -2.144821 0.2869021 0.23077457

fc2.bias f4 [3]
00000000: 391b 1dbd 6e9a 5a3f 9481 c2bf
-0.03835604 0.8539189 -1.5195794
