02_linear/models/net-20.ckpt (torch, 1823 bytes, 4 tensors)

fc1.weight f4 [10, 4]
0	0xbf518eeb	-0.818587
1	0xbde3ba37	-0.11119502
2	0xbf6703e8	-0.90240335
3	0xbf108cb9	-0.56464726
4	0xbea6e561	-0.32596877
5	0xbf0891c5	-0.53347427
6	0x3fc92f8c	1.5717635
7	0x401ae5d3	2.4202774
8	0xbea540c2	-0.3227597
9	0xbc5f3bc0	-0.013625085
10	0x3cc24b40	0.023717523
11	0x3d8f9140	0.07010126
12	0x3e17bc80	0.14818001
13	0xbefee510	-0.49784136
14	0xbebea354	-0.37233984
15	0x3c6c3e80	0.014419198
16	0xbf4b7a65	-0.79483634
17	0xbee4215b	-0.44556698
18	0xbf5a942d	-0.8538235
19	0xbf4a7791	-0.79088694
20	0xbd3f6020	-0.04672253
21	0x3e4e0894	0.2012046
22	0xbefb0b78	-0.49032187
23	0x3e6443bc	0.22291464
24	0xbec8f2ca	-0.39247733
25	0xbeefcc23	-0.4683543
26	0x3dcd2d28	0.100183785
27	0x3e7c1967	0.24619065
28	0x3f63ee0e	0.8903512
29	0x3fd10a2a	1.6331227
30	0xbfc2c1ce	-1.5215394
31	0xc020fb16	-2.515325
32	0x3d68eb40	0.056864977
33	0xbe62555c	-0.22102875
34	0xbeddcaac	-0.4331869
35	0x3eaa99fe	0.33320612
36	0xbe9ea2fa	-0.30983716
37	0xbe915f5e	-0.28393072
38	0x3ec286e4	0.37993538
39	0xbd6cae70	-0.057783544

fc1.bias f4 [10]
0	0xbe34a07c	-0.17639345
1	0xbfc7a182	-1.5596163
2	0x3e4e66f4	0.20156461
3	0x3c993480	0.018701792
4	0xbeec0f57	-0.46105453
5	0xbeea8d6e	-0.45811027
6	0xbe61413d	-0.21997543
7	0x3ff5e14b	1.9209379
8	0xbea54c3e	-0.3228473
9	0x3e1672a0	0.14692163

fc2.weight f4 [3, 10]
0	0x3e9d1bc2	0.3068524
1	0xc007bf94	-2.121068
2	0xbe44075f	-0.19143437
3	0x3e4ee9e9	0.20206417
4	0x3ecde4cd	0.40213624
5	0xbe0e8140	-0.13916492
6	0x3e922f8c	0.285519
7	0x3fa58a99	1.2932922
8	0xbe8e1cd7	-0.27756378
9	0xbdea1bb9	-0.11431069
10	0xbf32f0cd	-0.6989868
11	0x3e157cff	0.14598463
12	0x3b8da627	0.0043227854
13	0x3bc7af7c	0.0060939174
14	0xbef9294e	-0.48664325
15	0x3cbf9623	0.02338702
16	0xbe10de13	-0.14147215
17	0x3ec5ea03	0.386551
18	0x3cd5aa78	0.026082262
19	0x3d13f915	0.036126215
20	0xbf0cbfe3	-0.54980296
21	0x3fa2ac0d	1.2708756
22	0xbdda68ce	-0.10664521
23	0x3d58d3db	0.052936416
24	0x3eb474c5	0.35245338
25	0x3e9cd609	0.30632046
26	0x3f62b705	0.88560516
27	0xc0141a59	-2.3141081
28	0x3e92e4d5	0.2869021
29	0x3e6c502b	0.23077457

fc2.bias f4 [3]
0	0xbe20cd1c	-0.15703243
1	0x3f9f36fb	1.2438654
2	0xbff0f73f	-1.8825454
