02_linear/models/net-20.pth (torch, 1823 bytes, 4 tensors)

fc1.weight f4 [10, 4]
000000 88 db 1d bf 23 bb 33 bf 27 29 bd be 48 08 10 bf
       -0.61663103 -0.7020742 -0.3694546 -0.56262636
000010 e7 5b cf be 7b be 52 bf be 51 b8 3f da 42 25 40
       -0.40499803 -0.823219 1.4399946 2.5822053
000020 e3 e1 a5 3e 20 d4 15 3f 74 ca 6c bf 52 cd 50 bf
       0.323989 0.585268 -0.9249642 -0.81563294
000030 e3 85 d3 bb 14 fa 0f bf a0 36 1c 3e 81 5c 3e be
       -0.0064551695 -0.56240964 0.15255213 -0.18589975
000040 fb 25 7a 3f aa 08 ab 3f 62 46 b0 bf 16 97 0c c0
       0.97714204 1.3362019 -1.3771479 -2.1967216
000050 06 48 ea 3d 69 b7 8f 3e 6c 16 4b be 65 4e 0a bf
       0.11439519 0.28069618 -0.19832772 -0.5402587
000060 25 38 32 3e 50 dd 34 3f 42 e6 32 bf 74 70 3e bf
       0.1740423 0.70650196 -0.69882596 -0.7439034
000070 78 61 bf be f0 f6 24 3d e0 49 da bd 32 a5 c6 be
       -0.3737905 0.04027456 -0.10658622 -0.3879791
000080 52 c4 e6 be c2 6c b4 3e 20 92 e0 3c 98 87 fd bd
       -0.45071656 0.35239226 0.027413428 -0.12379378
000090 b6 c9 cb be b6 d6 34 be 6d 8d 89 3e 5c a3 a7 3d
       -0.3980233 -0.1766003 0.26865712 0.08185455

fc1.bias f4 [10]
000000 3c 8e 81 be c4 2a c4 bf ad 94 0d 3f 60 e5 ed be
       -0.2530383 -1.5325551 0.55304986 -0.46464062
000010 1a 03 c8 3f 7c 84 5d be 0f f1 84 3e fc 9d 89 3e
       1.5625947 -0.2163257 0.25965163 0.26878345
000020 e0 45 f0 3c dd 31 58 bf
       0.029330194 -0.84451085

fc2.weight f4 [3, 10]
000000 f2 04 39 bf 20 a5 21 c0 f8 65 e3 3f d0 f2 2c be
       -0.7227317 -2.5257034 1.7765493 -0.168895
000010 27 be 27 3f a7 d6 8d 3e ff c0 25 3f b4 8a 87 bd
       0.65524524 0.2770283 0.64747614 -0.066182524
000020 3d a5 04 be 13 41 7a bd 56 13 a1 3e 24 38 42 bd
       -0.12953658 -0.061097216 0.31460065 -0.04741682
000030 9e 34 c6 be 05 a8 d9 3e df 3f d4 3e da 24 a6 3b
       -0.3871202 0.42511 0.4145498 0.005070311
000040 12 c5 47 be 3a e2 57 be 83 bd 16 3e a5 ce ff bb
       -0.1950877 -0.21082392 0.1472073 -0.0078066164
000050 de 1d 0c 3f 9b 61 a8 3f a9 3d dc be 17 7c ef 3e
       0.54733074 1.3154787 -0.43015793 0.4677436
000060 13 a1 f8 bf f2 68 05 3d b0 f8 64 bf 54 30 1d 3e
       -1.9424156 0.032570787 -0.89441967 0.15350467
000070 f4 83 7e be 7c 48 04 3e
       -0.24855024 0.12918276

fc2.bias f4 [3]
000000 d9 30 d5 be 9b 84 b0 3f c6 02 13 c0
       -0.4163883 1.3790468 -2.2970443
