02_linear/models/net-10.pth (torch, 1823 bytes, 4 tensors)

fc1.weight f4 [10, 4]
-0.61663103 -0.7020742 -0.36945453 -0.56262636 -0.3321027 -0.7831851 1.2995303 2.1859565
0.3252191 0.54569596 -0.8806339 -0.7514506 -0.006454019 -0.56240886 0.15255381 -0.18589766
0.8833188 1.2695359 -1.2103747 -1.7622625 0.121001795 0.27721658 -0.18129705 -0.52126074
0.14400432 0.6604479 -0.695096 -0.7205563 -0.3737905 0.04027456 -0.10658622 -0.3879791
-0.45071656 0.35239226 0.027413428 -0.12379378 -0.39802325 -0.17660016 0.26865712 0.08185441
00000000: 88db 1dbf 23bb 33bf 2529 bdbe 4808 10bf
00000010: 5d09 aabe d27e 48bf 0257 a63f b6e6 0b40
00000020: 1e83 a63e bbb2 0b3f 3971 61bf 115f 40bf
00000030: 3c7c d3bb 07fa 0fbf 1137 1c3e f55b 3ebe
00000040: 2e21 623f 2780 a23f 8fed 9abf d191 e1bf
00000050: cacf f73d 55ef 8d3e efa5 39be 5871 05bf
00000060: de75 133e 1d13 293f d0f1 31bf 6176 38bf
00000070: 7861 bfbe f0f6 243d e049 dabd 32a5 c6be
00000080: 52c4 e6be c26c b43e 2092 e03c 9887 fdbd
00000090: b4c9 cbbe acd6 34be 6d8d 893e 49a3 a73d

fc1.bias f4 [10]
-0.25303823 -1.096474 0.5422623 -0.46463975 1.0215195 -0.21337983 0.22055599 0.26878345
0.029330194 -0.84451085
00000000: 3a8e 81be 4359 8cbf b4d1 0a3f 43e5 edbe
00000010: 27c1 823f 3e80 5abe 6ed9 613e fc9d 893e
00000020: e045 f03c dd31 58bf

fc2.weight f4 [3, 10]
-0.7227317 -2.2208042 1.4292276 -0.16889466 0.7675608 0.2551772 0.57923603 -0.066182524
-0.12953658 -0.061097216 0.3146006 -0.029519845 -0.24576652 0.42511 0.42235836 0.023905259
-0.13696142 -0.21082392 0.1472073 -0.007806629 0.54733074 1.2614673 -0.43010378 0.46774328
-1.9986794 0.03264793 -0.89440286 0.15350467 -0.24855024 0.12918276
00000000: f204 39bf a821 0ec0 eef0 b63f b9f2 2cbe
00000010: dd7e 443f 96a6 823e d048 143f b48a 87bd
00000020: 3da5 04be 1341 7abd 5413 a13e 9ad3 f1bc
00000030: 38aa 7bbe 05a8 d93e 5b3f d83e f6d4 c33c
00000040: 9d3f 0cbe 3ae2 57be 83bd 163e c0ce ffbb
00000050: de1d 0c3f c377 a13f 9036 dcbe 0c7c ef3e
00000060: bad4 ffbf d6b9 053d 96f7 64bf 5430 1d3e
00000070: f483 7ebe 7c48 043e

fc2.bias f4 [3]
-0.25902507 0.99164295 -1.936925
00000000: ef9e 84be 50dc 7d3f 29ed f7bf
