02_linear/models/net-20.pth (torch, 1823 bytes, 4 tensors)

fc1.weight f4 [10, 4]
00000000: 1a9c e7be 88b1 843e 9e04 f4be a0ea 90bd
00000010: 203d 06be 502c 81bd 20a8 cebd 8017 433e
00000020: e440 3e3e 962d 9ebe 4286 b9be 12e2 f3be
00000030: 8c65 6b3e 68d6 4cbe f6d4 5cbf 1003 9ebe
00000040: d83b 4cbe 7eed fbbe 3013 283e c480 4cbe
00000050: 582c 893d 28ee 9abe 28a0 adbe d4d8 d0be
00000060: 865c bdbe 4fa6 1fbf bf5a 8a3f 5060 833f
00000070: dd05 6c3e 4371 583f ed4e 39bf 0601 c9bf
00000080: c70b 2ebe cc44 7b3f 9996 f4be 59f0 b4bf
00000090: 28ab e7bd b066 61be da69 97be 3401 a53e
-0.45236284 0.25916696 -0.47659773 -0.07076001 -0.13109255 -0.0630728 -0.10090661 0.19051933
0.18579441 -0.30894154 -0.36235243 -0.47633415 0.22987956 -0.20003664 -0.8626245 -0.30861712
-0.19944704 -0.4920463 0.1641357 -0.19970995 0.06697911 -0.30259824 -0.33911252 -0.40790427
-0.36984652 -0.6236314 1.0808944 1.0263767 0.23049112 0.84547824 -0.72386056 -1.5703437
-0.1699668 0.9815185 -0.47771147 -1.4135848 -0.11311942 -0.22011828 -0.29572946 0.3222748

fc1.bias f4 [10]
00000000: 62fe e13e d443 4f3e 140a 1f3e 01d0 4bbe
00000010: 2472 ec3e 5e7d cc3e 20c1 4fbf 0e0e 0b3f
00000020: dc94 f73e e833 283e
0.4413939 0.20240718 0.15531188 -0.19903566 0.46180832 0.39939398 -0.8115406 0.5431832
0.48355758 0.1642605

fc2.weight f4 [3, 10]
00000000: 4e5d 2abe 6d10 1bbd 7080 4e3e 4437 eb3d
00000010: 69f0 37be 9a0b d1bd f761 afbf 3036 e43f
00000020: d4d4 9f3f 52a2 153e ab30 903e f238 95bd
00000030: b0b7 8abe 9fac 9d3e 733d 583d 8eef 62be
00000040: b8d8 07be a398 08bf 96a0 69bf 45bc 08be
00000050: 0d75 8f3d fad4 54be 1220 40be bf41 c8bd
00000060: 0dea 0bbd 526a 663d e38b 563f 5abc aabf
00000070: 284f 9ebe 0fc8 423e
-0.16637155 -0.03785746 0.20166183 0.114851505 -0.17962803 -0.10207291 -1.3701771 1.7829037
1.2486825 0.14612702 0.2816213 -0.07286252 -0.27093267 0.30795762 0.052792978 -0.22161695
-0.13266265 -0.53357905 -0.9126066 -0.13353069 0.070047475 -0.20784369 -0.18762234 -0.09778165
-0.034158755 0.05625374 0.838072 -1.333873 -0.30919766 0.19021629

fc2.bias f4 [3]
00000000: 7b55 30bf 5b89 8b3f bf3b 6dbf
-0.6888043 1.0901293 -0.9266929
