02_linear/models/net-9.ckpt (torch, 1823 bytes, 4 tensors)

fc1.weight f4 [10, 4]
0	0xbe97690b	-0.2957233
1	0xbe81b40c	-0.25332677
2	0xbef4a509	-0.47782162
3	0xbf466f3a	-0.7751347
4	0x3f072c57	0.5280203
5	0x3faf2272	1.3682387
6	0xbf8aa88f	-1.083269
7	0xbfde70a1	-1.7378122
8	0xbab79043	-0.0014004785
9	0xbe5911b9	-0.21198167
10	0xbf18460c	-0.59481883
11	0xbec36285	-0.38161102
12	0xbf02e7d9	-0.5113502
13	0xbf10077d	-0.56261426
14	0xbf385156	-0.7199911
15	0xbf33a907	-0.7017979
16	0xbf3f406c	-0.74707675
17	0xbe8278a8	-0.25482678
18	0x3fe4e604	1.7882695
19	0x4030bff4	2.761716
20	0xbe6f8a45	-0.2339259
21	0x3bdbec4f	0.00671152
22	0xbf02d322	-0.51103413
23	0xbe977378	-0.29580283
24	0x3d922ba0	0.07137227
25	0xbefe1a70	-0.49629545
26	0x3e36222c	0.17786473
27	0xbef89490	-0.48550844
28	0xbec6256c	-0.38700426
29	0xbf982da2	-1.1888926
30	0x3ee88f0e	0.45421642
31	0x3fef64a2	1.8702586
32	0xbed78a28	-0.42097592
33	0x3e2a4e90	0.16631532
34	0x3e8f0b5c	0.27938354
35	0x3ea03d42	0.31296736
36	0xbf32df57	-0.6987204
37	0xbf03190d	-0.512101
38	0xbe96c86d	-0.29449788
39	0xbe7a21d1	-0.24426962

fc1.bias f4 [10]
0	0x3dc0decd	0.09417496
1	0x3fa8e5dd	1.3195149
2	0xbd47c6e7	-0.048773672
3	0xbdf2b3c6	-0.11850695
4	0xbf22a8c9	-0.63538796
5	0xbe889a3c	-0.2668017
6	0xbedace28	-0.4273541
7	0xbf8f973a	-1.1218026
8	0xbeec5232	-0.4615646
9	0xbec06ae7	-0.3758156

fc2.weight f4 [3, 10]
0	0xbe4173c4	-0.18891817
1	0x3fb5a8cf	1.4192141
2	0x3f277224	0.6540854
3	0x3f154bd6	0.5831884
4	0xc0187494	-2.3821154
5	0x3ec2c495	0.38040605
6	0xbdf073fd	-0.11740873
7	0xbedcf277	-0.43153736
8	0xbe3016cd	-0.17196198
9	0xbe80367c	-0.25041568
10	0x3d92fbea	0.07176955
11	0x3eb9c40a	0.36282378
12	0xbec3903b	-0.38195977
13	0xbeaa4eae	-0.33263153
14	0xbe232bc1	-0.1593466
15	0xbe30796c	-0.17233819
16	0x3e15ab18	0.14616048
17	0xbe3b6917	-0.18301807
18	0x3e11c243	0.14234261
19	0xbea66f67	-0.32506868
20	0x3dc2ec8b	0.09517773
21	0xbff17a36	-1.8865421
22	0xbf525922	-0.82167256
23	0xbe95e8e5	-0.29279247
24	0x3f8a284e	1.079355
25	0x3cfda93c	0.030964486
26	0xbe7c894c	-0.2466175
27	0x3f04c499	0.51862484
28	0xbd81a6e4	-0.0633066
29	0xbbc57fdd	-0.0060272054

fc2.bias f4 [3]
0	0xbcbfa805	-0.023395548
1	0x3f8149b9	1.0100623
2	0xbfdecff9	-1.7407218
